#map0 = affine_map<(d0, d1, d2) -> (d0, d1)>
#map1 = affine_map<(d0, d1, d2) -> (d0, d1, d2)>
#map2 = affine_map<(d0, d1, d2) -> (d0, d2)>
#map3 = affine_map<(d0, d1) -> (d0, d1)>
#map4 = affine_map<(d0, d1) -> (d0)>
#map5 = affine_map<(d0, d1) -> (d1, d0)>
#map6 = affine_map<(d0, d1) -> (d1)>
module  {

  func @main2(%9 : tensor<1x16xf32>) -> tensor<1x2xf32> {
    %cst = arith.constant dense<[0.043447677, -0.0434476472]> : tensor<2xf32>
    %cst_0 = arith.constant dense<[[… > : tensor<2x16xf32>
    %cst_1 = arith.constant dense<[… > : tensor<16xf32>
    %cst_2 = arith.constant dense<"…"> : tensor<16x16xf32>
    %10 = linalg.init_tensor [1, 16] : tensor<1x16xf32>
    %cst_6 = arith.constant 0.000000e+00 : f32
    %11 = linalg.fill(%cst_6, %10) : f32, tensor<1x16xf32> -> tensor<1x16xf32> 
    %cst_7 = arith.constant dense<[1, 0]> : tensor<2xi64>
    %12 = linalg.init_tensor [16, 16] : tensor<16x16xf32>
    %13 = linalg.generic {indexing_maps = [#map5, #map3], iterator_types = ["parallel", "parallel"]} ins(%cst_2 : tensor<16x16xf32>) outs(%12 : tensor<16x16xf32>) {
    ^bb0(%arg1: f32, %arg2: f32):  // no predecessors
      linalg.yield %arg1 : f32
    } -> tensor<16x16xf32>
    %14 = linalg.init_tensor [1, 16] : tensor<1x16xf32>
    %15 = linalg.matmul ins(%9, %13 : tensor<1x16xf32>, tensor<16x16xf32>) outs(%11 : tensor<1x16xf32>) -> tensor<1x16xf32>
    %16 = linalg.generic {indexing_maps = [#map6, #map3, #map3], iterator_types = ["parallel", "parallel"]} ins(%cst_1, %15 : tensor<16xf32>, tensor<1x16xf32>) outs(%14 : tensor<1x16xf32>) {
    ^bb0(%arg1: f32, %arg2: f32, %arg3: f32):  // no predecessors
      %37 = arith.addf %arg1, %arg2 : f32
      linalg.yield %37 : f32
    } -> tensor<1x16xf32>
    %17 = linalg.init_tensor [1, 16] : tensor<1x16xf32>
    %18 = linalg.generic {indexing_maps = [#map3, #map3], iterator_types = ["parallel", "parallel"]} ins(%16 : tensor<1x16xf32>) outs(%17 : tensor<1x16xf32>) {
    ^bb0(%arg1: f32, %arg2: f32):  // no predecessors
      %cst_11 = arith.constant 0.000000e+00 : f32
      %cst_12 = arith.constant 3.40282347E+38 : f32
      %37 = arith.cmpf olt, %arg1, %cst_11 : f32
      %38 = select %37, %cst_11, %arg1 : f32
      %39 = arith.cmpf olt, %cst_12, %arg1 : f32
      %40 = select %39, %cst_12, %38 : f32
      linalg.yield %40 : f32
    } -> tensor<1x16xf32>

    %19 = linalg.init_tensor [1, 2] : tensor<1x2xf32>
    %cst_8 = arith.constant 0.000000e+00 : f32
    %20 = linalg.fill(%cst_8, %19) : f32, tensor<1x2xf32> -> tensor<1x2xf32> 
    %cst_9 = arith.constant dense<[1, 0]> : tensor<2xi64>
    %21 = linalg.init_tensor [16, 2] : tensor<16x2xf32>
    %22 = linalg.generic {indexing_maps = [#map5, #map3], iterator_types = ["parallel", "parallel"]} ins(%cst_0 : tensor<2x16xf32>) outs(%21 : tensor<16x2xf32>) {
    ^bb0(%arg1: f32, %arg2: f32):  // no predecessors
      linalg.yield %arg1 : f32
    } -> tensor<16x2xf32>
    %23 = linalg.init_tensor [1, 2] : tensor<1x2xf32>
    %24 = linalg.matmul ins(%18, %22 : tensor<1x16xf32>, tensor<16x2xf32>) outs(%20 : tensor<1x2xf32>) -> tensor<1x2xf32>
    

    %25 = linalg.generic {indexing_maps = [#map6, #map3, #map3], iterator_types = ["parallel", "parallel"]} ins(%cst, %24 : tensor<2xf32>, tensor<1x2xf32>) outs(%23 : tensor<1x2xf32>) {
    ^bb0(%arg1: f32, %arg2: f32, %arg3: f32):  // no predecessors
      %37 = arith.addf %arg1, %arg2 : f32
      linalg.yield %37 : f32
    } -> tensor<1x2xf32>
    
    %26 = linalg.init_tensor [1, 2] : tensor<1x2xf32>
    %27 = linalg.generic {indexing_maps = [#map3, #map3], iterator_types = ["parallel", "parallel"]} ins(%25 : tensor<1x2xf32>) outs(%26 : tensor<1x2xf32>) {
    ^bb0(%arg1: f32, %arg2: f32):  // no predecessors
      %37 = math.exp %arg1 : f32
      linalg.yield %37 : f32
    } -> tensor<1x2xf32>
    
    %28 = linalg.init_tensor [1] : tensor<1xf32>
    %cst_10 = arith.constant 0.000000e+00 : f32
    %29 = linalg.fill(%cst_10, %28) : f32, tensor<1xf32> -> tensor<1xf32> 
    %30 = linalg.generic {indexing_maps = [#map3, #map4], iterator_types = ["parallel", "reduction"]} ins(%27 : tensor<1x2xf32>) outs(%29 : tensor<1xf32>) {
    ^bb0(%arg1: f32, %arg2: f32):  // no predecessors
      %37 = arith.addf %arg1, %arg2 : f32
      linalg.yield %37 : f32
    } -> tensor<1xf32>
    
    %31 = tensor.expand_shape %30 [[0, 1]] : tensor<1xf32> into tensor<1x1xf32>
    %32 = linalg.init_tensor [1, 1] : tensor<1x1xf32>
    %33 = linalg.generic {indexing_maps = [#map3, #map3], iterator_types = ["parallel", "parallel"]} ins(%31 : tensor<1x1xf32>) outs(%32 : tensor<1x1xf32>) {
    ^bb0(%arg1: f32, %arg2: f32):  // no predecessors
      %cst_11 = arith.constant 1.000000e+00 : f32
      %37 = arith.divf %cst_11, %arg1 : f32
      linalg.yield %37 : f32
    } -> tensor<1x1xf32>
    %34 = linalg.init_tensor [1, 2] : tensor<1x2xf32>
    %35 = tensor.collapse_shape %33 [[0, 1]] : tensor<1x1xf32> into tensor<1xf32>
    %36 = linalg.generic {indexing_maps = [#map3, #map4, #map3], iterator_types = ["parallel", "parallel"]} ins(%27, %35 : tensor<1x2xf32>, tensor<1xf32>) outs(%34 : tensor<1x2xf32>) {
    ^bb0(%arg1: f32, %arg2: f32, %arg3: f32):  // no predecessors
      %37 = arith.mulf %arg1, %arg2 : f32
      linalg.yield %37 : f32
    } -> tensor<1x2xf32>
    return %36 : tensor<1x2xf32>
  }
}

// ./mlir-tv ../tests/model2/src.mlir ../tests/model2/src.mlir -max-const-tensor-size=1 --smt-to=10000000 --verbose -dump-smt-to=makesource 

